…
 [0.         1.         0.         0.         0.        ]
 [0.00191939 0.         0.95201536 0.         0.04606526]
 [0.00182815 0.00365631 0.         0.99451554 0.        ]
 [0.         0.         0.         0.         1.        ]]
Found 3670 files belonging to 5 classes.
Using 2936 files for training.
Found 3670 files belonging to 5 classes.
Using 734 files for validation.
Model: "sequential"
_________________________________________________________________
Layer (type)                 Output Shape              Param #   
=================================================================
rescaling (Rescaling)        (None, 224, 224, 3)       0         
_________________________________________________________________
conv2d (Conv2D)              (None, 222, 222, 32)      896       
_________________________________________________________________
max_pooling2d (MaxPooling2D) (None, 111, 111, 32)      0         
_________________________________________________________________
conv2d_1 (Conv2D)            (None, 109, 109, 64)      18496     
_________________________________________________________________
max_pooling2d_1 (MaxPooling2 (None, 54, 54, 64)        0         
_________________________________________________________________
flatten (Flatten)            (None, 186624)            0         
_________________________________________________________________
dense (Dense)                (None, 128)               23888000  
_________________________________________________________________
dense_1 (Dense)              (None, 5)                 645       
=================================================================
Total params: 23,908,037
Trainable params: 23,908,037
Non-trainable params: 0
_________________________________________________________________
184/184 [==============================] - 9s 46ms/step - loss: 2.9289 - accuracy: 0.5627
Test accuracy : 0.5626702904701233
[[484.   3.   2.   7.   8.]
 [  0. 716.   0.   3.   3.]
 [  2.  12. 493.   7.   7.]
…
